Maix-TF-workspace/mnist.tflite (tflite, 223320 bytes, 8 tensors)

Conv2D_1_bias f4 [32]
00000000: a9c8 0d3e c7cd b53d 33ab c33d f233 ea3d
00000010: 04e3 e43d 0a45 b63d bdf8 a83d f3b5 c93d
00000020: 3349 bf3d 2aba bd3d 2813 d73d 73f9 bd3d
00000030: 96c2 c93d 41cb a63d 09df da3d c6b9 e53d
00000040: 90fc b63d 35db c03d f6a3 d13d cd56 bb3d
00000050: 798c ed3d d65b b03d 5cc5 a63d 471e fc3d
00000060: 93ac 9c3d eba6 df3d c0c5 bd3d 7f28 c73d
00000070: ab7c ce3d 0982 cd3d ceeb bd3d 9701 c03d
0.13846077 0.088771395 0.09554138 0.11435689 0.11176112 0.08899887 0.08250568 0.09849157
0.093401335 0.092640236 0.10501701 0.09276094 0.098515674 0.08144236 0.10687072 0.11217074
0.08934891 0.094168104 0.10236351 0.09147415 0.11599059 0.08611266 0.08143112 0.123104624
0.076501034 0.10920509 0.092662334 0.09724521 0.10082372 0.10034568 0.09273492 0.09375303

Conv2D_bias f4 [16]
00000000: b423 8b3d 7688 d73d 1c93 9d3d aa52 b03d
00000010: 5cc2 d93d 8dbb e63d 0c62 ba3d d239 963d
00000020: 7777 1a3e ff9b 263d ecdf ae3d 6e2f e63d
00000030: 5576 023e 58b3 a73d 71e5 263e eacb b63d
0.06793919 0.10524075 0.076940745 0.08609517 0.10632774 0.11266241 0.09100732 0.07335247
0.15084635 0.040676113 0.085388035 0.11239515 0.12740453 0.08188504 0.16298462 0.08925612

MatMul_1_bias f4 [10]
00000000: c1c2 393e 6e7f 35bc e305 203e 1b75 893d
00000010: b72e ae3d 1c1e db3c 447e 193e 96f0 093d
00000020: 1f66 3e3e 8b13 e63d
0.18140699 -0.011077745 0.15627246 0.06711789 0.08505004 0.026747756 0.14989573 0.033676706
0.18593644 0.11234196

MatMul_bias f4 [32]
00000000: c875 b73d 28b5 c53d cc3b b63d 6c87 c73d
00000010: 9811 e43d 20d3 dc3d 8513 cf3d 8d45 d73d
00000020: 52cd f23d dbac c03d 7c27 dc3d 5c73 c93d
00000030: cda1 ed3d 63f2 d73d 1655 cb3d d054 c93d
00000040: 8697 cc3d a3e4 d53d 8f10 af3d 0e00 d53d
00000050: 351c d73d 9048 d33d f45d d13d f024 c73d
00000060: 3585 c73d 95f3 cc3d 9f95 e23d cdcc cc3d
00000070: ac57 c43d 2659 d63d 97b9 c03d 7ae0 c63d
0.08958012 0.096536934 0.08898124 0.097426265 0.11136168 0.107824564 0.10111145 0.10511313
0.11855568 0.094079696 0.107497185 0.09836456 0.11603127 0.105442785 0.09928338 0.0983063
0.09989838 0.104439996 0.0854808 0.10400401 0.10503427 0.103165746 0.10222998 0.09723842
0.09742204 0.10007397 0.11063694 0.1 0.095870346 0.104662225 0.094103985 0.09710784

WC1 f4 [1, 3, 3, 16]
00000000: b800 223c b65a 563e f2e5 463e e76f 5c3e
00000010: 14a5 46be ddbf c3bc b2ec c03d cc75 1b3e
00000020: e163 d33d 8169 453e 0278 603e 039a 4c3e
00000030: 0b6b 223e 4884 283e 0d3a b03c f05b 633e
00000040: 87c8 ad3e db3f 443e f44d 3b3e f52f 8e3e
00000050: cbfc 01be b558 5a3e fbf7 36bd f69f b93e
00000060: 8885 e7bd 7377 ba3d 7d49 693e ed19 183e
00000070: 1807 553d 05ef e53d 1157 cc3d 9433 6f3e
00000080: 79b4 4b3e 57aa 9a3e adbe 803e ffa1 303e
00000090: 4eac 80be 178a 2c3e b76e 563e 9075 163e
000000a0: c076 063e 1cc4 ad3e d40e 28bd c4ea fd3d
000000b0: bd6b f93d 93e2 95bd 36c5 5e3d 25d8 b73d
000000c0: eab5 893e 0cf0 373e 425d 00bd a7f9 9d3e
000000d0: 7bc1 bebc 7130 d0bd 2689 4c3e f5e1 8f3e
000000e0: a1db d0bd 8fac 993b 3ea5 b43e ccda 2a3d
000000f0: 12cb 8f3e c447 723e 6407 d9bd c5fe 553e
00000100: d551 8a3e e240 d3bc f2b4 3f3e cbe9 8f3e
00000110: 4007 d03d e4d2 61bd 5cd3 1c3e 3837 413e
00000120: 8db2 cc3c 2f79 0d3e 2e76 b63d ff6e 663e
00000130: f211 4b3e 56ab 123e 6656 37be ebbb 393e
00000140: 5a85 903c 2650 80bd 3d05 4b3e 6919 733c
00000150: fd45 683e 735a da3d 35f5 943d fb36 863e
00000160: b417 0bbe 4161 ab3e 5730 6f3e 31fe a13d
00000170: ee87 f5bd 2d72 833e dc5c 853d b847 ad3e
00000180: 5aef 8e3e 0f7f 4fbd a2e9 8a3d 22e4 043d
00000190: 85e2 8b3e dde7 33be 19f4 8c3e 8e74 413e
000001a0: 04b1 b6bc 461d 333e 6f69 7a3e 6600 32be
000001b0: 5e49 063e 4581 f8bd aaab abbd ce0d 6a3e
000001c0: 0966 1a3e abcb 30be 1348 8a3d 90c7 2e3d
000001d0: 9f19 a13e eb14 dcbd 9dec 943e 2604 983e
000001e0: e0e0 1cbe 9de1 073e b56f 1b3e 262c 10be
000001f0: 96bd 4ebe 28c6 753e 511c 87bc 7d50 cb3a
00000200: 9d43 073c 7f61 8bbe 822b c03d 59d4 1b3e
00000210: 76f7 453e 92ca 52bd 0b5d 123e f114 f33c
00000220: 7d61 23be b497 ecbc 589d 70bd 9ca4 973e
00000230: 41ff 3ebd fe9f 7d3e c9c4 81be f719 c2bd
0.009887867 0.20933041 0.19423655 0.21527062 -0.1939891 -0.023895198 0.09420146 0.15181655
0.10321785 0.19278528 0.2192078 0.19980626 0.15861146 0.16456711 0.021512056 0.2220304
0.33942053 0.19164984 0.18291456 0.27770963 -0.12694089 0.21322902 -0.044670086 0.36254853
-0.11304766 0.091048144 0.2278194 0.1485364 0.05200872 0.1122723 0.09977544 0.23359519
0.19893064 0.30208084 0.25145474 0.17249297 -0.25131458 0.16849552 0.20940672 0.14693284
0.13131237 0.33938682 -0.041029766 0.123982936 0.121787526 -0.07318606 0.054387294 0.08976773
0.26896602 0.17962664 -0.031338938 0.30854532 -0.023285618 -0.101654895 0.19974193 0.2810208
-0.10198141 0.00468976 0.3528232 0.041712567 0.28084618 0.23660189 -0.10597113 0.20897968
0.27015558 -0.025787774 0.18721369 0.28108057 0.10157633 -0.05513276 0.15315002 0.1886872
0.024987483 0.13815759 0.0890926 0.22503279 0.19831064 0.14323172 -0.17904052 0.18138091
0.017641712 -0.06265287 0.19826217 0.014837601 0.22682948 0.10661783 0.07273332 0.26213822
-0.13583261 0.33472636 0.23358284 0.07909811 -0.11988817 0.25673047 0.06511852 0.3384378
0.27916986 -0.050658282 0.06782843 0.032444127 0.27321258 -0.17568918 0.27529982 0.18892118
-0.022301205 0.17491636 0.24454282 -0.17382964 0.13113925 -0.12134031 -0.08382352 0.22856829
0.15077986 -0.17265193 0.06752028 0.042670786 0.3146486 -0.10746177 0.29086772 0.29690665
-0.15320158 0.13269658 0.15179332 -0.14079341 -0.20189509 0.24001372 -0.016492995 0.0015511658
0.008255866 -0.2722282 0.093832985 0.15217723 0.1933268 -0.051462717 0.14293306 0.029673072
-0.15955158 -0.028880931 -0.058743805 0.29617774 -0.046630148 0.24768063 -0.25345448 -0.09477609

WC2 f4 [32, 3, 3, 16]
00000000: 2d17 c43d 61ca c83d 4ffc 633e 4046 103e
00000010: 3a65 203d 9c8b 08be 8b00 8fbd dff0 373e
00000020: 4b0f cebb 6fe4 baba 4221 323e ad80 f1bd
00000030: 8b32 513e 9c5b a73d ca1b 0cbc de7b 233e
00000040: 0288 d9bd 1c60 02bd eca0 343e ba93 3fbd
00000050: 63da 96bd a2aa 3c3e b2cb 013d d6f4 2bbd
00000060: 3148 0b3e ced1 bebd 9218 a13c 0004 16be
00000070: fbb4 0c3e dca4 51bb a95d e03d 01ba 183d
00000080: 0c58 73be a062 f6bc cff8 0dbe 7821 75be
00000090: 9185 6d3d 9645 2f3d 2fdd 75bd 2135 ae3c
000000a0: ad96 233e 9d84 2ebe 48e6 313d e2ac 3ebe
000000b0: e286 3fbc 99ec 08be d658 d0bd 2782 6dbc
000000c0: f11b 973e 5917 1d3e 0f59 c43c 833e 203e
000000d0: 7415 03be 2c5c a93c 60ab 8c3d 03bd 293b
000000e0: 3f6b c4bd a0b6 98bd 647e 123d 0f13 9d3d
000000f0: 0826 473e 5786 ebbd eaf0 043e 7fa2 043e
00000100: 6fea 893c 9798 c23d 6d6d 04be 9041 be3b
00000110: 7667 0dbe 1d16 783d 19a9 d2bb a627 11be
00000120: 0abf 023e 4c74 e2bd 065e 07be 180f 463d
00000130: be2b e53c 38fd 23bc f415 78bc d9d4 5abd
00000140: c831 58be 83bf 9d3d f1d0 d5bd 7918 5cbb
00000150: f463 eabd 3223 14be 257d e73d 17d3 2a3d
00000160: 1506 b8bd 1754 b0bd d8ff 33bc 5644 a7b8
00000170: 56ce 553d e3f1 17bd 8315 acbc 27c1 85bd
00000180: 7077 9bbc e857 1c3c fc01 173e fa7c ec3d
00000190: 2d52 163e 8f44 cc3d 08d2 39bd 2b82 223e
000001a0: bad8 363e 7e2b 3d3e 20be 173e d9d5 5a3e
000001b0: 3e20 e23d d430 fcbd dc6f 1a3c a21e 353c
000001c0: b6fb b4bc bf11 fdb7 e2d9 1fbe 689b 1abd
000001d0: 8d6a 173c 0ed7 653d d9e5 3ebd 0699 33be
000001e0: 7831 133e 91d4 b5bd 982e 82bc 1a4e 253e
000001f0: f364 a23d abf2 fabd 9a85 453e 72fa 1c3d
00000200: 986d 9abd f997 3e3d ec98 03be a23d 55bd
00000210: 054b 14be 0c25 dfbd 3eda 65bd 9388 2fbe
00000220: 2422 913c 4bfc 2a3d 3928 ffbd 1c7b d3bc
00000230: 3d3e 9bbd 1d49 043e 65f7 193d c3b2 0a3e
00000240: 98c6 11bc 4b17 0fbe 7160 703d ad71 29be
00000250: a39c c33d f10a febd 4c90 d03d 5d8c 533d
00000260: 8103 01be 37fe 003e 26d1 ccbc a1a8 afbd
00000270: db45 22be bbf1 af3d 0ca4 aabd e6ac 64bd
00000280: c0a2 aa3d 5f0b cfbd 549b adbd 810b bc3d
00000290: 9824 423e 6e68 d03c 1e59 363b 3bfa 273e
000002a0: e09c 5fbe 2a5f f73d e6bb c9bd 2ab8 a0bd
000002b0: 196e 763c e8ed 913d 7b95 e43b 1ff8 b93d
000002c0: 2bcc 883d 6077 423c 80dd c9bc 784f 893d
000002d0: 24f7 2abd 65aa b63d 9a0a 143d eece 11bc
000002e0: 131c 93bd 5430 d83d 9681 00bb 059a afbd
000002f0: 0baf 7d3c eab3 f0bd fd94 143d d165 a23d
00000300: 6603 80bc 4917 803d a16b b73d 2271 11be
00000310: ddcf 2b3e ffa1 843d 14f4 0dbd 7938 de3d
00000320: f6a4 e8bd 2919 553e 9762 8c3d f763 eebd
00000330: f3b2 603d 298c 2d3d 130f 8f3d 9184 ad3d
00000340: b4bc 9f3d 32fe 343e f45c 2abd 6b86 093e
00000350: 702a 33bd efa9 f6bd d116 e4bc b236 133d
00000360: 1cbf 803d 7188 1a3d ae72 1cbe 2cdd afbd
00000370: 7ebd 3a3e c526 d7bd 668b 013e c0b3 143d
00000380: 0ae1 9dbd dbdf bc3d 1036 9f3d 05eb 9ebd
00000390: 919c f0bd c172 c53d bf67 a93b e209 99bd
000003a0: 2bff 003e 80ff 8e3c 9f55 c1bc ec58 33bd
000003b0: 5a76 943d 89ce 10bd f1ef 13be 41f8 78bd
000003c0: c02a b83d 1cfd f63d 1505 b73c c3b2 343d
000003d0: 0b8e 28bd 9227 a33d be39 9abd b4e0 843b
000003e0: 50fd 083d 7f92 66bd a44a 93bd f5fe 88bd
000003f0: 39bb 043e 4b81 6a3d f10b b2bc 238f 9bbd
0.09574733 0.09804226 0.22264217 0.14089298 0.039159037 -0.13334507 -0.069825254 0.17962979
-0.006288444 -0.0014258752 0.173955 -0.11792121 0.20429437 0.0817177 -0.008551547 0.1596522
-0.106216446 -0.03182994 0.17639512 -0.046771742 -0.07365873 0.18424466 0.0316884 -0.04198154
0.13601758 -0.09317361 0.019665036 -0.14649963 0.13740914 -0.0031989133 0.10955364 0.037286762
-0.23764056 -0.030076325 -0.13864444 -0.23938549 0.057988707 0.04279097 -0.06002539 0.021265568
0.15975447 -0.17042775 0.043432504 -0.18620637 -0.011689873 -0.13371505 -0.10173194 -0.014496363
0.29513505 0.15340938 0.023968248 0.15648846 -0.12801152 0.020673834 0.06868625 0.0025900013
-0.09590768 -0.07456708 0.035765067 0.07669651 0.19448102 -0.11500233 0.12982526 0.12952612
0.01683542 0.095017605 -0.12932368 0.0058061555 -0.13808998 0.060567964 -0.0064288494 -0.14175281
0.12768188 -0.11057338 -0.13219461 0.04835424 0.02797496 -0.0100091025 -0.015141953 -0.053425644
-0.2111274 0.077025436 -0.10440243 -0.0033583923 -0.11444846 -0.14466551 0.11303166 0.041705217
-0.08985535 -0.08609789 -0.010986291 -7.975909e-05 0.05219873 -0.037095916 -0.021006351 -0.065309815
-0.01897785 0.009542443 0.1474685 0.11547275 0.14679785 0.09974014 -0.045366317 0.15869968
0.17856112 0.18473622 0.1481862 0.21370639 0.11041306 -0.12314001 0.009426083 0.011054667
-0.022092681 -3.0168214e-05 -0.1561046 -0.037745863 0.009241712 0.056113295 -0.04660592 -0.17538843
0.1437434 -0.088784344 -0.015891358 0.16143075 0.07929411 -0.122533165 0.19289246 0.03832478
-0.075404346 0.04653165 -0.12851304 -0.05206073 -0.14481743 -0.10895738 -0.056116335 -0.17141943
0.017716475 0.04174451 -0.12458844 -0.025815539 -0.075802304 0.12918516 0.03758945 0.13544755
-0.008897446 -0.1397373 0.058685724 -0.1654727 0.095513605 -0.12404431 0.101837724 0.051647533
-0.12598993 0.12596975 -0.025002073 -0.08577085 -0.1584696 0.08591028 -0.08332071 -0.05582895
0.08331823 -0.10109591 -0.08476892 0.09181882 0.18959272 0.025440421 0.0027824114 0.16404049
-0.21837187 0.12078698 -0.09850292 -0.078476265 0.015040898 0.07125455 0.0069758273 0.090805285
0.06679567 0.0118692815 -0.024641752 0.067046106 -0.041739598 0.08919219 0.036142923 -0.008899434
-0.07183089 0.10556093 -0.001960849 -0.08574299 0.015483628 -0.11753066 0.0362749 0.07929576
-0.01562662 0.06254441 0.089560755 -0.14203313 0.16778512 0.06476211 -0.0346566 0.10850615
-0.11359589 0.20810379 0.06854742 -0.116401605 0.05485816 0.042369995 0.06985297 0.08472551
0.07799664 0.17675093 -0.041592553 0.13430183 -0.043741643 -0.12044131 -0.027842911 0.035940833
0.06286451 0.037727777 -0.15278122 -0.08587107 0.18236348 -0.105054416 0.12650833 0.036304235
-0.077089384 0.092223845 0.077739835 -0.0775967 -0.11748613 0.09641028 0.005169838 -0.07472588
0.12597339 0.017455816 -0.023600398 -0.043785974 0.07249136 -0.035353217 -0.14446999 -0.06078363
0.08992529 0.120599955 0.02234129 0.044115793 -0.041151088 0.07966532 -0.07530545 0.004055107
0.033444703 -0.056292053 -0.07191971 -0.06689254 0.12962045 0.05725221 -0.02173421 -0.075956605

WF1/transpose f4 [32, 1568]
00000000: 9edb 99bd 9dbd 0fbb f1c4 2abd 9fbf dc3c
00000010: bd6b 81bd fba3 21be 5ffa 373e 1528 dabd
00000020: 4727 b0bd 9266 eb3d 1015 fb3c 482c 7e3c
00000030: 61b1 a43c 2f2a 1fbd eca5 a53d 61d0 603d
00000040: 7ddd 1cbe 763f 30bd 22a8 35bd fa3b b03d
00000050: 55a3 643d fa0e 7b3d 16d9 343d 6ab5 babd
00000060: 611d 83bd 0d9d 363d fe01 22bd d041 3dbe
00000070: 14b1 14bd ab02 323d e7d6 afbc 3653 aa3d
00000080: 6ff5 273c 55f1 193d 45d3 8ebc 5f82 08bd
00000090: c792 d83d c007 0e3d 8b0f e0bc 0c9b bcbd
000000a0: ad6b 13be 99ca 04be 2f0a 123c 43bb 313d
000000b0: 1375 10be cfc9 d4bd a332 203d de8d e93d
000000c0: 5813 b8bd 0999 ea3a 5f9d bcbd 034e b93b
000000d0: 2870 b9bc 9fe8 e2bc d8f6 dcbc db83 b1bd
000000e0: e2d7 3b3d e3ae 92bd fdbc a8bd 141a f33a
000000f0: f54b 243e 82e1 38bc 9f55 99bb 2d5a 00be
00000100: 0b8a 3bbd c662 1e3e 2e7b 0f3e 8284 253b
00000110: 1457 1fbe b806 0b3d d8b7 cc3c e1ec 54bc
00000120: a0bf 953d da31 5ebd 8721 183e c7d8 da3d
00000130: 6b6e b23d 6921 0e3e 29e1 083c 00c2 97bd
00000140: 52be e53d ee6e 943d 5acc 38bd 7377 f03d
00000150: dcf9 413d 4e64 b7bc dde3 b0bd ca00 9e3b
00000160: a2c2 053d 475c 9c3d 2170 9fbd d750 59bc
00000170: daa7 b83d ec16 4abd 23f9 753c 0bb2 5a3d
00000180: acc0 59be 0f94 aa3d 8393 1dbd 42cc d93c
00000190: a3e1 c93c 3279 8cbd 9fa0 32bd 765f c5bc
000001a0: 75af b6bc 6082 eabd 4c10 24be 2157 a63c
000001b0: 4f14 a9bd 8893 7bbd 4e47 c03d 9cdd 273d
000001c0: 6890 66bd 8297 4fbd c262 803c 64ff 2bbe
000001d0: 8840 d83b b101 05be 83c1 b73b 538f 00bd
000001e0: 6f1f 21bd c652 07be e304 c93d 7575 f8bd
000001f0: 32fe 57be c3ae a8bd f385 19bd a3ce 33bd
00000200: 881e 273e a0f4 bb3d 8cf5 2a3c 2c5c 11be
00000210: fae9 27be 24d0 e23d 0b77 e23d ff4b d7bd
00000220: d8ef 41bd b02e fd3b 95e2 31bd 6295 233d
00000230: aef7 773d 11f1 61bd 7446 9ebd 2ba7 ddbd
00000240: 4bc2 7fbd 39e7 8d3c 16b0 1e3e 20da 4cbe
00000250: 2828 5fbc 803f a5bc 4b58 d43d 9ef9 11be
00000260: 8477 cebb f1c1 df3c c041 34be afc3 a83d
00000270: 48a8 57be 58e0 7bbd 8422 f1bd 1a2d 4cbe
00000280: 8bc8 c4bd 3e9e eabd 246e 9bbd e680 933d
00000290: 5357 533d 906e 66bd 4d00 873d 2c47 b5bc
000002a0: b3cf 223d 56df 19be c159 4fbc df40 053d
000002b0: 25f0 e7bd 1423 b03d 5b32 babd fb85 f73d
000002c0: 03ea fbbd 79e9 fdbc 840f e53d e403 35be
000002d0: a187 95bb 29b5 8b3d 0af9 eb3d 02e2 04bd
000002e0: 1e69 8dbc 4416 723c eb85 b93d d288 72bc
000002f0: 48f7 5f3c 6db2 3dbe 89c8 38be ee99 003d
00000300: aad7 a93c 1d70 9abd 2a4f a2bd 9c44 be3c
00000310: 5df9 26bd 2d77 88bd 3a26 95bd 2441 4f3d
00000320: f149 003e 5945 84bd a546 183d b34e 813d
00000330: b04e 2abc d71d 45bd f587 60bd 8c4c d63b
00000340: 0800 463d c4c7 09bd 431b 58bc bef6 88bd
00000350: ed35 c0bd 4778 00bd a5ea 95bd 35fd 81bd
00000360: 1df5 27bd 5805 c5bc 2074 d83d 5a77 b7bd
00000370: 9eeb 99ba 3572 18be 58da 8d3d 9c9d ff3c
00000380: eae9 2e3d 6364 e23d 2f81 f5bd 2b61 ce3c
00000390: 629a dd3d 2d91 ca3d 7463 213d 2ed5 b7bc
000003a0: 4d55 37bd 285c 363c 089d 5f3d b57a 4d3d
000003b0: 45a5 78bd d6c0 33be 1e7f b53d 29ca 3a3d
000003c0: 3926 3bbc 2536 0abe 76f4 e4bd 0070 3a3d
000003d0: ebbf 27bd 3487 323d c3b4 8fbd dcba 1abc
000003e0: ed9b a8bd 3122 16bd 0e39 13be 94c4 13bd
000003f0: 644f 9e3d 0ffe a8bd 9d27 12be 3704 cebd
-0.07512592 -0.0021933087 -0.041691724 0.02694684 -0.063193776 -0.1578521 0.17966603 -0.10652176
-0.086012416 0.11494173 0.030649692 0.015513487 0.020104112 -0.03885859 0.08088288 0.054886226
-0.15318866 -0.04302927 -0.044349797 0.086051896 0.055819828 0.06129358 0.04415234 -0.09116633
-0.06402088 0.04458337 -0.03955268 -0.18482137 -0.036301687 0.043459576 -0.021464778 0.083166525
0.010251387 0.037583668 -0.017434726 -0.033327457 0.105748706 0.03467536 -0.027351161 -0.0920926
-0.14396544 -0.1296791 0.008913561 0.043391477 -0.1410716 -0.103900544 0.03911079 0.11404012
-0.089880645 0.0017898391 -0.09209704 0.0056550517 -0.022636488 -0.027698813 -0.026973173 -0.086677276
0.04586018 -0.07162263 -0.08239172 0.0018547201 0.160446 -0.011284234 -0.0046793963 -0.125344
-0.045785945 0.15467367 0.14011833 0.0025255983 -0.15560561 0.033941954 0.024990007 -0.012995929
0.0731194 -0.05424676 0.1485654 0.10685878 0.08712467 0.13879932 0.008354464 -0.074100494
0.11217941 0.07247721 -0.04511676 0.11741533 0.047357425 -0.022386696 -0.086372115 0.0048218714
0.03265632 0.07634788 -0.07785059 -0.013263903 0.0901639 -0.049338266 0.015013012 0.05339245
-0.21264905 0.08329021 -0.038470756 0.026586656 0.024643725 -0.06859054 -0.04361021 -0.02409337
-0.022300461 -0.11450648 -0.16021842 0.020305218 -0.08255827 -0.061419994 0.093886 0.040982828
-0.05629006 -0.0506816 0.015672091 -0.16796643 0.0065994896 -0.12988926 0.005607785 -0.031386685
-0.039336618 -0.1321517 0.09815385 -0.12131778 -0.21093062 -0.08236458 -0.03748126 -0.043898236
0.1632024 0.09177518 0.0104345195 -0.14195317 -0.16397849 0.11074856 0.11057862 -0.10512542
-0.047347873 0.007726513 -0.043428976 0.039937384 0.06053894 -0.05516154 -0.077282816 -0.108229004
-0.06244115 0.01732217 0.15496859 -0.20005083 -0.013620414 -0.02017188 0.10368403 -0.14255378
-0.0063008685 0.027314158 -0.17603207 0.08240449 -0.21060288 -0.061493248 -0.117741615 -0.1993908
-0.09608563 -0.114559636 -0.07589367 0.0720232 0.05159695 -0.056257784 0.06591854 -0.022128664
0.03974886 -0.15026602 -0.012655676 0.03253257 -0.11325101 0.086004406 -0.09091636 0.120861016
-0.123004936 -0.030995118 0.111846 -0.17677265 -0.0045632874 0.06821663 0.1152211 -0.0324421
-0.017262038 0.014775816 0.09058746 -0.014803128 0.013669796 -0.18525095 -0.18045248 0.0313968
0.02073272 -0.07540915 -0.079252556 0.023226075 -0.040765155 -0.06663356 -0.07282682 0.050599232
0.12528206 -0.064585395 0.037176747 0.06313839 -0.010394737 -0.04812416 -0.05481716 0.006539887
0.048339874 -0.033637777 -0.013190093 -0.06687687 -0.093852855 -0.031364705 -0.073201455 -0.063471235
-0.041005243 -0.0240504 0.10569024 -0.089583114 -0.0011743193 -0.14887317 0.069264114 0.031203084
0.042703547 0.110543035 -0.119875304 0.025192818 0.10820462 0.09890971 0.039401487 -0.02244052
-0.044759084 0.01113037 0.054593116 0.05016585 -0.06070449 -0.1755403 0.08862136 0.04560295
-0.011422687 -0.13497217 -0.1117944 0.045516968 -0.04095451 0.04358597 -0.070168994 -0.009443965
-0.082328655 -0.0366537 -0.14377233 -0.036076143 0.07729986 -0.08251583 -0.14272924 -0.10059398

WF2/transpose f4 [10, 32]
00000000: e257 11be d631 243e 13ca e03d e74a 5ebd
00000010: b814 7abe 70fe 83be d83d 953d 32d9 fbbd
00000020: 388f dabd d454 96bd cd13 99bd 269a 1f3d
00000030: a72c 88bd a247 d8bd b186 363e 8c1b 1c3d
00000040: 2069 c6bd 4ff3 563e 83d8 4cbe 3027 e1bd
00000050: 5856 313e 3c70 81bd 91c2 993d 1f8d 123d
00000060: 8b81 fabd 0996 80be 853b 9e3d 1777 573d
00000070: 5a40 9cbd 05bf dbbd 4a40 97bd 53a5 a33d
00000080: 2ff5 f4bd 343b 07be 8446 203c be9f 21be
00000090: 1d10 8f3d d232 1f3e 5407 0bbe 0c94 003e
000000a0: 06cc 1c3e 70b5 a3bc d2f0 903e b65c a7be
000000b0: 1a6d 013e e362 163e e698 0b3e cc4f 493d
000000c0: 6976 023e a9fe afbd 5c32 593d 8fc6 023e
000000d0: 364d 8fbe 173f 913d 898a 18bd 53cf e53d
000000e0: 11fc fdbd 09c8 4e3d d5ea 26be 0c29 193e
000000f0: 1a7f 043e 58d1 f63c 05bb 1cbe 7685 6e3c
00000100: 8f96 63be b6da bcbd b67f c33d c1bb fe3d
00000110: 964b 10be 8d55 23be 3a97 233e 1a43 56be
00000120: ebfa 7dbd a8c0 0c3e 1e41 03bd 7738 2cbe
00000130: fb63 d1bd 603d c1bd 2b52 48bd 727f c8bd
00000140: d0d8 413e eb72 90bd 947a fe3d 1f79 263e
00000150: 192c df3b 9a24 073e bd71 f0bd 02ec 823d
00000160: 278e 9dbd 68c6 0c3d a528 f1bd de09 25bc
00000170: 9c02 223e 1d6b 1cbe cf13 273e e263 3fbe
00000180: 7c15 023e b7f4 813d 9905 b43d d8a9 143d
00000190: f2d0 c4bd 856d d13d 786b 083e c2a2 233e
000001a0: ce82 db3c 4044 8fbd d5d4 363d 2696 7c3d
000001b0: 19ec 4bbe 1aaa 07be 2c3e b339 4800 84bd
000001c0: dcee 313e be62 51bd 7359 ae3d 4f15 39be
000001d0: b47a b9bd fff1 06be d626 6ebe f588 e43d
000001e0: 81ab 72bd e2cb e63d 918b ebb9 0f71 1b3c
000001f0: b6cc 8abd f1c9 48be c0c0 1bbd 17b4 9a3d
00000200: dfd2 aa3d 514d 83be 99a4 7cbe 66d5 133d
00000210: 6c90 f63d e5ee a2bd 23c9 25be 42b5 4fbe
00000220: 8b2b 48bc 8200 32bc a201 02be bb49 603d
00000230: f54d 273e facd 16be b169 cc3d 4ec1 44bd
00000240: ac3a 17be 56e8 83bd 54c8 d43d e65f 363e
00000250: 8bb8 e5bc 2c1a f83d 14a2 cdbd 571a b6bd
00000260: d68e 6dbd e05b 69be 0d7b 0c3e ca04 ff3d
00000270: 8c55 38be bdb5 a23d 76b1 103e 07b9 21be
00000280: 8bd7 143e 8a03 9f3d 0b7b 8f3d 9ea9 403d
00000290: 87c8 3e3d 4e23 c3bd 34b2 49bb 9a21 1a3e
000002a0: 6a2d 21be 9040 013e 8182 eebd 8afe 7a3d
000002b0: 78e5 9abb 3c43 0d3e 6242 5abc b877 aabc
000002c0: ae79 65be 26f2 53bd cbcd e3bd b2bb 6b3d
000002d0: dcd0 863d 1ef8 d7bd 8fa6 433e fd2b 11bd
000002e0: ff36 d73d 1f4c b33d f54e ed3d f3ce 9dbd
000002f0: 9baa 4fbe e8ff 43be f25b 3abe 6fb4 d9bd
00000300: 8bb1 1cbe b085 5dbe 8bf9 5bbd 3b15 7bbd
00000310: c8f2 f0bd 9394 52be beb1 8abe 45d8 3cbe
00000320: 25a1 2fbe f149 0c3d 7cad aebc c98c bfbd
00000330: 46dd fc3d 7a66 393e fef1 223c 925d c53d
00000340: e84b 53be 07ef 233e bed5 5abe 1cfd 463e
00000350: ad99 033e 1ea8 e93c ef5b 1b3e 4d86 bfba
00000360: 02fe cdbd b583 e03d d986 edbd d484 253d
00000370: 0b9a 18be 3ce7 ca3d e716 023e 9e67 26bc
00000380: 22bc 5dbe 94cc b23c 26f7 29be 763d c3bd
00000390: c6dd ca3d 4344 123e f2a0 073e c5bb 9bbd
000003a0: ae84 823e 4d78 e8bd 2a88 b5bd 0924 863d
000003b0: 4cd4 bbbd 09fd 36be 6dfb 02be c78e b0bc
000003c0: 0aeb bc3d fcc1 eabd 7688 163e 6d75 f3bd
000003d0: b0b9 cd3d dd92 6ebe c3e8 0dbe d674 c5bc
000003e0: fb3d bfbc 2286 6dbe bc8d 0c3e ff94 6b3d
000003f0: 7c6c 0abd 5a13 433d 3342 0ebe 72ad 023e
-0.14193681 0.16034636 0.109760426 -0.05427065 -0.24421966 -0.25780058 0.072871864 -0.12297286
-0.10671848 -0.073403984 -0.0747448 0.038965367 -0.06649142 -0.10560538 0.17824818 0.03811221
-0.0968802 0.20991252 -0.20004468 -0.109938025 0.17318094 -0.06320235 0.07507814 0.035779115
-0.122317396 -0.25114468 0.07726196 0.052603807 -0.076294616 -0.107297935 -0.07385309 0.079905175
-0.119608276 -0.13206178 0.009782437 -0.15783593 0.06985495 0.1554673 -0.13577014 0.12556475
0.15312204 -0.019983977 0.2830873 -0.3268792 0.12639275 0.1468616 0.13632545 0.049148366
0.12740482 -0.085934944 0.053026542 0.12771057 -0.27988595 0.070921116 -0.037241492 0.112211846
-0.124015935 0.050483737 -0.16300519 0.14957064 0.1293911 0.03012912 -0.15305717 0.014558187
-0.22225402 -0.09221403 0.09545843 0.12438155 -0.14091334 -0.15950604 0.15975657 -0.20924035
-0.062006872 0.13745368 -0.032044522 -0.16818415 -0.10224148 -0.094355345 -0.048906486 -0.09789933
0.18930364 -0.07053169 0.12425724 0.16257142 0.006810677 0.13197556 -0.11740444 0.06392671
-0.07693129 0.034368902 -0.117753305 -0.010073153 0.15821308 -0.15275235 0.1631615 -0.18690446
0.12703508 0.06345504 0.0879013 0.036294788 -0.09610166 0.10225967 0.13322246 0.15980056
0.026795771 -0.069954395 0.044636566 0.06166663 -0.19914283 -0.13248482 0.00034187862 -0.06445366
0.17376274 -0.05111956 0.08513155 -0.18074535 -0.09056607 -0.13178252 -0.23257002 0.11158935
-0.05924559 0.11269356 -0.00044926678 0.0094874045 -0.06777327 -0.19608285 -0.038025618 0.07553881
0.08341002 -0.25644925 -0.24672164 0.036092184 0.12039265 -0.07955722 -0.16190009 -0.20283988
-0.012217413 -0.010864379 -0.12695935 0.054757815 0.16338332 -0.14727011 0.099810965 -0.048035912
-0.14768475 -0.06440799 0.10389772 0.1781002 -0.028042099 0.12114367 -0.100406796 -0.08891743
-0.057997547 -0.22788954 0.13718815 0.12452085 -0.18001384 0.0794482 0.14130196 -0.15793239
0.14535348 0.07764347 0.070058905 0.04703676 0.046577957 -0.09528218 -0.0030776383 0.1505188
-0.1573998 0.12622285 -0.116459854 0.061277904 -0.004727062 0.13795179 -0.013321491 -0.02080904
-0.22409698 -0.051744603 -0.11123236 0.057552047 0.065828055 -0.105453715 0.19106506 -0.03544234
0.105085365 0.08754753 0.115873255 -0.07705488 -0.20279925 -0.19140589 -0.18199137 -0.10630118
-0.15302102 -0.21633029 -0.05370478 -0.061299544 -0.11765057 -0.20564489 -0.27088732 -0.18441875
-0.17151316 0.034250204 -0.021322958 -0.093530245 0.12346892 0.18105498 0.009945391 0.09636988
-0.20634425 0.1600915 -0.21370599 0.19432491 0.12851591 0.028522547 0.15171789 -0.0014612168
-0.10058214 0.10962621 -0.11597986 0.040409878 -0.14902513 0.09907386 0.12704049 -0.01015654
-0.21653798 0.021826066 -0.16598186 -0.09533207 0.09905581 0.14283852 0.1324499 -0.076041736
0.25491852 -0.113510706 -0.08863862 0.06549842 -0.09171352 -0.17869963 -0.12791224 -0.021552457
0.09224518 -0.11462781 0.14700493 -0.118876316 0.10045183 -0.23298211 -0.13858323 -0.024103563
-0.023344984 -0.23195699 0.13725942 0.05751514 -0.033794865 0.047625877 -0.1389244 0.12761477
